src/python/sarcoma_model.pt (torch, 168580 bytes, 5 tensors)

weight f4 [128, 256]
0	0x3d4d227e	0.050081722
1	0xbd4ac0ac	-0.049500152
2	0x3d14aeea	0.036299624
3	0x3c9ae944	0.018910058
4	0x39153600	0.00014229864
5	0xbd5cef50	-0.053939164
6	0x3d690db2	0.056897826
7	0xbd208f48	-0.039199144
8	0xbd73ffe6	-0.059570216
9	0x3d20acac	0.039227173
10	0xbd02e28a	-0.031954326
11	0x3cced850	0.02524963
12	0xbd7eb31c	-0.06218253
13	0x3d4d771c	0.05016242
14	0x3ca45d2c	0.020063959
15	0x3b73b120	0.0037184432
16	0xbd354fc8	-0.04426554
17	0xbce4b624	-0.027918883
18	0xbc83bcc4	-0.016081221
19	0xbcb3aea8	-0.021933869
20	0x3c9e33ec	0.019311868
21	0xbd16f8b6	-0.036858283
22	0x3c0d6730	0.008630559
23	0x3cfbdc28	0.030744627
24	0xbc6f1f48	-0.01459486
25	0xbc96abd4	-0.01839248
26	0xbd4d81dc	-0.05017267
27	0x3d45b188	0.04826501
28	0xbd766e04	-0.060163513
29	0x3b2af460	0.00260856
30	0x3ac05140	0.0014672652
31	0xbd309c4c	-0.043117806
32	0x3cf1bec4	0.02950991
33	0xbbef1a30	-0.007296823
34	0xbcbaed14	-0.022818126
35	0x3c78fa48	0.01519639
36	0x3be15de0	0.006877646
37	0x3bb65760	0.005564615
38	0xbc8f7a38	-0.017514333
39	0x3b8be2e0	0.004268989
40	0x3d6cb004	0.05778505
41	0x3c928498	0.017885491
42	0x3d306fa0	0.043075204
43	0xbd50c952	-0.050973244
44	0x3a97dc40	0.0011586025
45	0xbc251cf0	-0.0100777
46	0xbaa60880	-0.0012667328
47	0x3d012574	0.03152986
48	0xbd396c50	-0.04526931
49	0x3ccfe334	0.025376894
50	0x3c3528d8	0.011057101
51	0xbcf1ed04	-0.029531963
52	0xbcb5b50c	-0.022181056
53	0x3d65122e	0.05592554
54	0xbd4bb1bc	-0.049730048
55	0x3cd168f4	0.02556274
56	0xba876f80	-0.0010332912
57	0xbc709ff8	-0.014686577
58	0xbcdae680	-0.02672124
59	0xbd0774e0	-0.033070445
60	0x3bfd7970	0.0077354237
61	0xbd15b498	-0.03654918
62	0x3d09dd98	0.033658594
63	0xbbecc600	-0.007225752
64	0xbbf00650	-0.0073249713
65	0xbcb68938	-0.022282228
66	0xbce6b690	-0.028163224
67	0xbd52afb8	-0.05143711
68	0xbba3fd20	-0.00500454
69	0xba468580	-0.00075729936
70	0x3d2e7f36	0.042601787
71	0xbd58afe2	-0.05290211
72	0x3d3cf9d6	0.0461367
73	0x3d692782	0.056922443
74	0xbd04fe8c	-0.032469317
75	0x3c10c658	0.008836351
76	0x3cdb50ec	0.026771985
77	0x3c336960	0.010950416
78	0xbd2fbe76	-0.042906247
79	0x3d73ede6	0.05955305
80	0xbcfed3c0	-0.03110683
81	0xbcdeaee4	-0.027183004
82	0x3d0da836	0.034584247
83	0xbcdc7758	-0.026912376
84	0x3b8fdcb0	0.0043903217
85	0x3d0829d8	0.03324303
86	0xbc971db8	-0.018446788
87	0x3c0f2fa8	0.0087393895
88	0x3d0b7316	0.0340453
89	0x3cba67c4	0.022754557
90	0x3d6acbca	0.057323255
91	0x3d4a438a	0.049380817
92	0xbcc0c9e4	-0.023533769
93	0x3d1841aa	0.037171997
94	0xbd686918	-0.05674085
95	0x3d75a79c	0.059974298
96	0x3cd13b34	0.025540926
97	0xbd42f87c	-0.047600254
98	0xbc0fb890	-0.0087720305
99	0xbd6d630a	-0.05795578
100	0xbbf0ab00	-0.0073446035
101	0x3c563e58	0.013076387
102	0x3d452336	0.048129283
103	0x3d33b9ea	0.043878473
104	0xbc117088	-0.008876927
105	0x39f7c300	0.00047256798
106	0x3d6afa4e	0.057367615
107	0x3ccbd400	0.024881363
108	0xbc654f90	-0.01399602
109	0xbcf1a3ac	-0.02949699
110	0xbc3d9408	-0.011570938
111	0x3ccf2238	0.025284871
112	0xbd467224	-0.048448697
113	0xbc1a3118	-0.009411119
114	0xbd39f74c	-0.045401856
115	0x3ccc13a4	0.02491171
116	0x3cb77a10	0.022397071
117	0x3d64d420	0.05586636
118	0xbd62b658	-0.055349678
119	0xbc8dcfb8	-0.017310962
120	0x3d30b436	0.043140613
121	0xbd611576	-0.054952107
122	0xbc2f5810	-0.010702148
123	0x3aa0f140	0.0012278929
124	0x3cdf62f8	0.027268872
125	0x3d2fb11e	0.04289352
126	0xbce469e8	-0.027882531
127	0x3d4b49ee	0.04963105
128	0x3d2f13ec	0.04274361
129	0xbd0cc192	-0.03436429
130	0xbc57df28	-0.013175763
131	0xbd2ad5fc	-0.041707978
132	0x3bfcb8f0	0.007712476
133	0x3d5ca030	0.053863704
134	0x3c86e7b4	0.016467907
135	0x3bf22600	0.007389784
136	0x3d6ce710	0.057837546
137	0x3cbb7978	0.02288507
138	0x3d2f2794	0.042762354
139	0x3d2767e2	0.040870555
140	0xbc4ca908	-0.012491472
141	0xbd71d2a2	-0.059038766
142	0x3c7adcc8	0.015311427
143	0x3d202a1c	0.03910266
144	0xbd7c882c	-0.0616533
145	0xbd04efe2	-0.032455333
146	0xbd38f3d8	-0.045154423
147	0x3d08a0a6	0.03335633
148	0xbd323b9c	-0.04351388
149	0xbba2f870	-0.0049734637
150	0x3d2983e6	0.041385554
151	0x3d707d2a	0.058713116
152	0x3cc38194	0.023865499
153	0x3d1fa87e	0.038979046
154	0x3bb58650	0.005539693
155	0xbd2e5dbc	-0.04256986
156	0xbc976ab4	-0.018483497
157	0xbcefefa8	-0.029289082
158	0xbc3383c8	-0.010956712
159	0xbd02cd58	-0.031934112
160	0x38ee4400	0.0001136139
161	0xbd21d7b2	-0.039512344
162	0xbcd17020	-0.02556616
163	0xbce59d80	-0.028029203
164	0xbc5d4418	-0.013505004
165	0xbd7265ce	-0.05917912
166	0x3d19e68e	0.03757339
167	0xbd77fcbe	-0.060543768
168	0xbc1604b0	-0.009156391
169	0xbcfb21a8	-0.030655697
170	0xbcac4aa4	-0.021031685
171	0xbd322d38	-0.043500155
172	0xbd581c0e	-0.05276113
173	0x3d330930	0.043709934
174	0x3c8ff40c	0.017572425
175	0xbd39624e	-0.045259766
176	0xbd14db32	-0.036341853
177	0x3b8461f0	0.0040399954
178	0x3c294d10	0.010333315
179	0x3cc3a9b8	0.02388464
180	0x3d06c9e4	0.03290738
181	0xbd324f06	-0.043532394
182	0xbd15ee08	-0.036603957
183	0x3d650c00	0.055919647
184	0x3d7260e6	0.05917444
185	0xbd7d618a	-0.0618606
186	0xbd5ab8aa	-0.053398766
187	0xbd39111e	-0.04518234
188	0xbc3c5d48	-0.011496849
189	0xbd1448a6	-0.036202095
190	0xbd18dd6e	-0.037320547
191	0x3d64ac72	0.05582852
192	0xbc46eeb8	-0.012141876
193	0xbd06762c	-0.03282754
194	0xbd40270e	-0.046912245
195	0x3c3d9a48	0.011572428
196	0xbd43c82a	-0.047798313
197	0xbd05766a	-0.03258363
198	0xbd49aa1a	-0.049234487
199	0x3d3d9b84	0.04629089
200	0x3c112910	0.008859888
201	0xbd6724a8	-0.056431442
202	0x3d007a9c	0.03136693
203	0x3ca813cc	0.020517252
204	0x3d6f60bc	0.058441862
205	0x3d1d2bfe	0.038372032
206	0x3cd47340	0.025933862
207	0x3c77db28	0.0151279345
208	0x3d780c50	0.060558617
209	0x3d18f966	0.03734722
210	0xbd168a16	-0.036752783
211	0x3ccec540	0.02524054
212	0x3d2eb6f8	0.04265496
213	0x3d6fed04	0.058575645
214	0xbcd23afc	-0.025662892
215	0x3cc0a3c0	0.023515582
216	0x3c3a4718	0.011369489
217	0xbce113dc	-0.02747529
218	0xbd3b9464	-0.045795813
219	0x3d21bbb6	0.039485656
220	0xbbd4b360	-0.0064911097
221	0x3d708bc8	0.058727056
222	0xbd5e0cf2	-0.054211564
223	0x3d22f66c	0.039785787
224	0xbca2bc8c	-0.019865297
225	0x3c8911f8	0.016732201
226	0xbd30846a	-0.04309503
227	0xbc45e950	-0.012079552
228	0x3d36df4c	0.044646546
229	0x3d505f84	0.05087234
230	0x3d7722ba	0.060335852
231	0xbd5e65ac	-0.05429618
232	0x3d32330a	0.043505706
233	0xbd1e628e	-0.038668208
234	0xbcdb1e1c	-0.026747756
235	0xbd6becb0	-0.05759877
236	0x3ba3be70	0.004997067
237	0xbd30f73e	-0.04320454
238	0x3d66e412	0.05636985
239	0xbb5b4280	-0.0033456385
240	0x3ca1bec4	0.019744284
241	0x3c174b28	0.009234227
242	0xbd30d2f4	-0.04316993
243	0x3d5b3928	0.053521305
244	0xbd752214	-0.059846953
245	0x3d0ab948	0.033868104
246	0x3d0dd0a8	0.03462282
247	0x3c7124a0	0.014718205
248	0x3d691724	0.056906834
249	0xbca2cbe0	-0.019872606
250	0x3d65e86e	0.056129865
251	0x3d26c002	0.040710457
252	0x3d4f7ac8	0.050654203
253	0x3d3ee96a	0.04660932
254	0x3ad07040	0.0015902594
255	0x3bf90860	0.0075998753

bias f4 [128]
0	0xbd7359ba	-0.05941174
1	0x3c0de388	0.008660205
2	0xbd1a554e	-0.03767901
3	0xbd480952	-0.048837014
4	0xbd391c48	-0.045192987
5	0x3c9defd0	0.01927939
6	0x3d433930	0.04766196
7	0xbb36afa0	-0.0027875677
8	0xbcbc3edc	-0.022979192
9	0xbab02300	-0.0013438165
10	0x3d5637da	0.052299358
11	0xbd57ae5a	-0.05265651
12	0xbd0853d8	-0.033283085
13	0x3ca846a0	0.02054149
14	0xbd6df08c	-0.05809073
15	0xbd19225a	-0.037386276
16	0xbcd9f700	-0.026607037
17	0x3d675f92	0.056487627
18	0x3cc022dc	0.023454122
19	0x3cb25aec	0.02177187
20	0xbd5508c8	-0.052010328
21	0x3d429246	0.04750278
22	0x3ad28c40	0.0016063526
23	0xbd6e61d8	-0.05819878
24	0x3cc722e8	0.024308637
25	0xbd3eee52	-0.046614
26	0xbd188034	-0.03723164
27	0xbcad94d0	-0.021189123
28	0x3c88141c	0.016611151
29	0x3d0d42e0	0.034487605
30	0x3a948f80	0.001133427
31	0xbd66818a	-0.05627588
32	0xbd7abf5c	-0.06121765
33	0xbaa73380	-0.0012756437
34	0x3c05cb20	0.008166105
35	0xbd7556d4	-0.05989726
36	0x3d11205e	0.03543126
37	0x3d3fe5d2	0.046850033
38	0x3d6f2a92	0.058390208
39	0x3cdb6af8	0.026784405
40	0xbb96c920	-0.0046016127
41	0x3d5a8080	0.053345203
42	0x3d725a06	0.059167884
43	0xbd69dcae	-0.057095222
44	0x3d25518c	0.040360972
45	0xbd58c040	-0.05291772
46	0xbcd1cdec	-0.025610887
47	0x3d5c25d2	0.053747006
48	0xbd0719b2	-0.03298349
49	0xbcc3e210	-0.023911506
50	0xbd569440	-0.052387476
51	0xbd7ff4f2	-0.062489457
52	0x3d5caf94	0.05387838
53	0xbcb82ef4	-0.022483326
54	0xbd609e28	-0.05483833
55	0xbd68a3aa	-0.056796707
56	0xbca17930	-0.019711107
57	0xbcb94db4	-0.02262006
58	0x3b0fb880	0.002193004
59	0xbc318fc8	-0.010837503
60	0xbbbcb260	-0.0057585686
61	0x3d2d7bda	0.042354442
62	0xbd2bd310	-0.04194933
63	0xbd25e5fc	-0.040502533
64	0xbc515f18	-0.01277902
65	0x3d0e84be	0.03479456
66	0xbca34e64	-0.01993484
67	0xbd3ab1a8	-0.045579582
68	0x3d18bb1e	0.037287824
69	0x3d5d04bc	0.053959593
70	0x3d6b44c4	0.057438627
71	0x3a9ad480	0.0011812598
72	0xbd242cb4	-0.040081695
73	0x3ced1740	0.02894175
74	0x3c7bfa98	0.01537957
75	0x3cc234d4	0.023706831
76	0xbc8ed3d8	-0.017435
77	0xbcd3cd8c	-0.025854848
78	0x3c87c100	0.016571522
79	0x3cede518	0.029039904
80	0xbd1a27aa	-0.037635483
81	0x3a87d300	0.0010362566
82	0x3d22334e	0.03959971
83	0xbd2dfe60	-0.04247892
84	0xbd2154c6	-0.039387487
85	0xbd541a36	-0.05178281
86	0x3d15d1da	0.036577083
87	0x3bbb0e60	0.0057085007
88	0x3c85853c	0.016298883
89	0xbd1f519a	-0.03889618
90	0xbd766496	-0.06015452
91	0xbd1fc39e	-0.039004914
92	0x3d29b92e	0.041436367
93	0xbd5f9bf6	-0.054592095
94	0xbd5cc1d2	-0.05389578
95	0xbd390358	-0.045169204
96	0x3ccef2dc	0.025262289
97	0x3d49ee5c	0.049299583
98	0xbd36a760	-0.044593215
99	0x3be8e770	0.0071076676
100	0xbd6ba922	-0.057534344
101	0xbd735a16	-0.059412085
102	0x3d1c7b26	0.03820338
103	0xba8656c0	-0.0010249242
104	0xbd7d6cca	-0.061871327
105	0xbd3eba62	-0.046564467
106	0x3d284132	0.0410778
107	0x3d18bfc6	0.037292264
108	0xbd5b3fcc	-0.05352764
109	0xbc765f30	-0.015037343
110	0xbd6562ee	-0.05600255
111	0xbb275a80	-0.002553612
112	0xbd576984	-0.052590862
113	0x3c5a4da8	0.013324179
114	0x3d04b78e	0.032401614
115	0xbcfa77c0	-0.03057468
116	0x3b9b07f0	0.004731171
117	0x3c001f20	0.007819921
118	0xbcced25c	-0.025246792
119	0x3c7eb6a8	0.015546478
120	0xbd010f48	-0.031508714
121	0xb8a67400	-7.9371035e-05
122	0xbcd8ce6c	-0.026465617
123	0xbd5798a0	-0.05263579
124	0x3c5edeb8	0.013602905
125	0xbcc2f870	-0.023800105
126	0xbc706f10	-0.014674917
127	0x3b8b6460	0.004253909

weight f4 [64, 128]
0	0x3d8aaf19	0.067716785
1	0x3c921af0	0.01783511
2	0xbd81a49f	-0.06330227
3	0xbd9bde52	-0.076107636
4	0x3c781108	0.015140779
5	0x3d80885d	0.06276009
6	0xbdae5244	-0.08511785
7	0x3d498942	0.049203165
8	0x3bfcbec0	0.007713169
9	0x3d4aff72	0.049560018
10	0xbcc47d48	-0.02398552
11	0xbce01af4	-0.027356602
12	0x3c892a70	0.016743869
13	0x3d679946	0.056542657
14	0x3d508796	0.050910555
15	0xbd056819	-0.03256998
16	0x3d3899ca	0.04506854
17	0x3b35e4c0	0.0027754754
18	0xbd2bede8	-0.041974932
19	0xbd167b22	-0.036738522
20	0xbd8f3dd1	-0.069942124
21	0x3d8b6c9d	0.06807826
22	0x3d1ac092	0.037781306
23	0x3d233152	0.039841957
24	0xbd21ce5c	-0.03950344
25	0x3c626138	0.013817124
26	0xbcc15bd8	-0.023603365
27	0xbda89ebb	-0.082334004
28	0xbd98515a	-0.074373916
29	0x3db34015	0.08752457
30	0xbdb3082a	-0.087417915
31	0xbd9bd2d4	-0.07608572
32	0x3d3273d6	0.0435675
33	0x3d4bc856	0.049751602
34	0xbd80d8b4	-0.06291333
35	0x3d78b70e	0.06072145
36	0x3d6aa9e2	0.05729092
37	0xbd5e0fe2	-0.054214366
38	0x3c83b744	0.016078599
39	0x3c8121a8	0.015763119
40	0x3cfe5830	0.03104791
41	0xbdad2ae3	-0.084554456
42	0x3b77c920	0.0037809089
43	0x3d417d96	0.04723891
44	0xbd45c1b5	-0.048280437
45	0x3bf8b030	0.0075893626
46	0xbcdce682	-0.026965383
47	0x3cae7cf4	0.021299817
48	0xbbdfce10	-0.0068299845
49	0xbcd97908	-0.02654697
50	0x3cb2c778	0.02182363
51	0x3d74524e	0.059648804
52	0xbd970995	-0.073748745
53	0x3dabe0c7	0.08392482
54	0xbc3a4768	-0.011369564
55	0xbdae8025	-0.085205354
56	0x3cd03330	0.025415033
57	0xbd34d68e	-0.044149928
58	0x3d875495	0.066079296
59	0xbd8b1cd9	-0.06792612
60	0xbd510c07	-0.05103686
61	0xbd631490	-0.05543953
62	0x3cfd35b8	0.030909404
63	0xbda6ae76	-0.081387445
64	0x3bf30200	0.00741601
65	0xbc2c89b8	-0.010530882
66	0x3ce981c0	0.028504252
67	0x3d44da7e	0.048059933
68	0xbd894532	-0.06702651
69	0xbcdb8f30	-0.026801676
70	0x3d835e8b	0.06414517
71	0x3d3510be	0.04420542
72	0x3c706fd8	0.014675103
73	0x3b837b80	0.004012525
74	0x3cb1d250	0.02170673
75	0x3c989a74	0.018628336
76	0x3da03bf9	0.07823939
77	0x3cfbb1bc	0.030724399
78	0xbd8b0cd1	-0.06789554
79	0xbc236008	-0.009971626
80	0x3bf20220	0.007385507
81	0xbc05fbc0	-0.008177698
82	0xbd30782b	-0.04308335
83	0xbda4eabc	-0.080525845
84	0x3acb4580	0.0015508384
85	0xbb455440	-0.0030110031
86	0xbc0f1750	-0.0087335855
87	0xbd077353	-0.033068966
88	0x3a794400	0.0009508729
89	0x3d97fae5	0.07420901
90	0x39221600	0.0001545772
91	0xbda64a12	-0.081195965
92	0x3c42cd18	0.0118897185
93	0x3cf85bb4	0.030317165
94	0xbd9f6a9b	-0.07784005
95	0x3d830c13	0.06398787
96	0x3d3b79aa	0.045770325
97	0x3c3e35a8	0.011609472
98	0x3d1c435e	0.038150184
99	0xbd717ecf	-0.058958825
100	0x3c8c0400	0.017091751
101	0xbd0928cd	-0.033486176
102	0x3c8cbcfc	0.017179959
103	0xbc1d8480	-0.00961411
104	0xbd8ac2ee	-0.06775461
105	0x3d86b445	0.065773524
106	0xbca110fc	-0.01966142
107	0xbd66d8d0	-0.056359112
108	0xbd260ef0	-0.04054159
109	0xbcb2ae30	-0.021811575
110	0x3cb47904	0.022030361
111	0xbcf46956	-0.029835384
112	0xbd370761	-0.04468477
113	0xbcebf66e	-0.02880403
114	0x3c7cc580	0.015427947
115	0x3d9c7727	0.07639914
116	0xbd85e7b4	-0.065383345
117	0xbd1aa9b1	-0.037759487
118	0xbd5ce877	-0.053932633
119	0x3cec0d48	0.028814927
120	0xbbc25470	-0.005930476
121	0x3d80b161	0.06283832
122	0x3c142ca0	0.009043843
123	0x3ccec340	0.025239587
124	0x3d8dc875	0.06923
125	0x3da06b57	0.078329735
126	0x3d0e1074	0.03468366
127	0x3da7bcb1	0.08190287
128	0x3d5e0f72	0.05421395
129	0xbc585198	-0.013203047
130	0xbd3771b6	-0.044786178
131	0xbda9bdcf	-0.08288156
132	0xbd330515	-0.04370602
133	0xbd2b7d99	-0.041867826
134	0xbd3a4c32	-0.04548282
135	0xbd1d7d70	-0.038449705
136	0x3d080a8e	0.03321319
137	0xbdb05417	-0.08609789
138	0x3cbea878	0.023273692
139	0xbd75fe72	-0.06005711
140	0xbd909e47	-0.07061439
141	0xbc88616c	-0.016648017
142	0xbd657a66	-0.05602493
143	0x3dab7a13	0.08372893
144	0x3d730b0a	0.0593367
145	0x3d8f895f	0.07008623
146	0x3db41675	0.08793346
147	0xbd378996	-0.044808947
148	0x3d1e27ba	0.038612105
149	0xbc469460	-0.012120336
150	0x3c7c4440	0.015397131
151	0x3d370f22	0.044692166
152	0xbd0cf06f	-0.034408983
153	0x391cea00	0.00014964491
154	0xbd79f9b7	-0.061029162
155	0xbd3b1fb6	-0.04568454
156	0xbcb94cf8	-0.02261971
157	0x3d43acda	0.047772266
158	0x3b5204e0	0.0032046363
159	0xbbd594f0	-0.006517999
160	0xbbc133a0	-0.0058960468
161	0xbba157d0	-0.004923798
162	0xbd6216f1	-0.05519766
163	0xbcbac5e4	-0.02279944
164	0xbda205e9	-0.079112835
165	0xbc8a3574	-0.016871192
166	0x3d0085ae	0.031377487
167	0x3d5fe4ee	0.054661684
168	0xbd69ea93	-0.057108473
169	0xbd9b66a5	-0.07587937
170	0xbd423592	-0.04741437
171	0x3d95a0a7	0.07306033
172	0xbc0a1688	-0.008428223
173	0x3d6e5376	0.058185063
174	0x3cef28e4	0.029194303
175	0x3d360c32	0.044445224
176	0xbcc3a2e8	-0.02388139
177	0x3b81da00	0.003962755
178	0xbc66e608	-0.01409293
179	0x3bbb2dd0	0.0057122484
180	0xbd146c1e	-0.03623592
181	0xbd18c7a5	-0.03729977
182	0xbd2baefc	-0.041914925
183	0x3da079e1	0.078357466
184	0xbc05ff40	-0.008178532
185	0xbc0e3840	-0.008680403
186	0xbd66183a	-0.056175448
187	0x3d898d0d	0.067163564
188	0xbd86b3f0	-0.06577289
189	0xbcc67258	-0.024224445
190	0x3aa74cc0	0.0012763962
191	0x3d841909	0.064500876
192	0xbd21a704	-0.03946592
193	0xb9a77600	-0.0003194064
194	0x3d5d2b3a	0.053996302
195	0x3c94cd2c	0.01816424
196	0x3ca1dae8	0.019757703
197	0x3d1579d8	0.036493152
198	0x3c0e4800	0.008684158
199	0xbd91d0b8	-0.07119888
200	0x3d9001f1	0.0703162
201	0xbcc91b84	-0.024549253
202	0xbda3d503	-0.07999613
203	0x3da530cf	0.0806595
204	0x3d6123aa	0.054965653
205	0x3d2bc09a	0.041931726
206	0x3d1b575a	0.0379251
207	0xbd092163	-0.033479106
208	0xbca3ea90	-0.020009309
209	0x3da5f12b	0.0810264
210	0x3d90c0c9	0.07068021
211	0x3d100fac	0.035171196
212	0x3da01a3d	0.078175046
213	0x3d5c9a7e	0.053858273
214	0x3c52d8e8	0.012869097
215	0xbd092801	-0.033485416
216	0x3da2e86f	0.079544894
217	0xbd7e9868	-0.062157065
218	0xba38d000	-0.00070500374
219	0x3c228ec0	0.00992173
220	0x3c473378	0.012158267
221	0x3d94a1eb	0.07257446
222	0xbd5f75ec	-0.05455582
223	0xbd8abae8	-0.06773931
224	0x3cafc20c	0.021454833
225	0xbd996d70	-0.07491577
226	0xbc96b4c4	-0.018396743
227	0xbd353056	-0.04423555
228	0x3da83925	0.082140245
229	0xbd9007d7	-0.07032745
230	0x3d0c99d6	0.034326397
231	0xbdb4a4e6	-0.088205144
232	0x3cd1bf48	0.025603905
233	0xbd8b3502	-0.0679722
234	0x3cc8bf0c	0.02450516
235	0x3d9d5e5f	0.076840155
236	0x3d8ae167	0.06781273
237	0x3d5da9d6	0.054117046
238	0x3d87840d	0.066169836
239	0x3d92bf9d	0.071654536
240	0xbd45e27a	-0.048311688
241	0xbd03adfa	-0.03214834
242	0xbdb43120	-0.08798432
243	0xbd21ee61	-0.039533976
244	0x3d8796ed	0.06620584
245	0x3d8ec3b1	0.06970919
246	0xbd530c04	-0.05152513
247	0xbdab1f66	-0.08355598
248	0xbc3e94e8	-0.011632182
249	0xbcaf14d4	-0.021372236
250	0x3c8fdb60	0.01756066
251	0x3d678dbe	0.05653166
252	0xbc05c1f8	-0.008163922
253	0xbd85182c	-0.06498751
254	0xbd76f01c	-0.06028758
255	0xbbddb620	-0.0067660958

bias f4 [64]
0	0x3cd21434	0.0256444
1	0xbda60858	-0.0810706
2	0xbd8f31bf	-0.0699191
3	0x3cd2620c	0.025681518
4	0x3bff1d80	0.007785499
5	0x3da91435	0.08255807
6	0x3d9ef275	0.07761089
7	0x3ccf22bc	0.025285117
8	0xbc426ae8	-0.011866309
9	0x3cb9bc40	0.022672772
10	0xbd7ce6a1	-0.061743382
11	0x3d24a86e	0.04019969
12	0x3cb2e178	0.021836028
13	0xbd7fa9f0	-0.062417924
14	0x3d196202	0.037446983
15	0x3d1522cc	0.036410138
16	0xbd93c3ee	-0.07215105
17	0xbbd90300	-0.006622672
18	0x3d92e7d7	0.07173126
19	0x3d52db82	0.05147887
20	0xbd9849f2	-0.07435979
21	0x3b62e3e0	0.0034620687
22	0xbda49c5d	-0.080376364
23	0x3cf317bc	0.029674403
24	0x3d8d7c07	0.06908422
25	0xbd41e74b	-0.04733972
26	0xbd675cee	-0.05648511
27	0x3d9a088f	0.07521164
28	0x3c6f51b8	0.014606886
29	0xbd392ac8	-0.045206815
30	0x3da394b9	0.07987351
31	0x3c9186d8	0.017764494
32	0x3d6fd66e	0.058554105
33	0xbb42e360	-0.0029737577
34	0x3ca6b2d4	0.020348944
35	0x3b0368c0	0.002005145
36	0xbda1869f	-0.07887005
37	0x3d80241b	0.062568866
38	0xbda94417	-0.0826494
39	0xbc19d428	-0.009388961
40	0x3bed4680	0.0072410703
41	0xbd6c2796	-0.05765494
42	0xbcce2e80	-0.025168657
43	0xbd723a8e	-0.059137873
44	0x3d9adbc1	0.07561446
45	0xbcbec460	-0.023286998
46	0xbc16dcc0	-0.009207904
47	0xbc548fd8	-0.012973748
48	0xbd521d04	-0.051297203
49	0xbd8001ad	-0.0625032
50	0xbc8e62d4	-0.01738111
51	0xbd0cc4c5	-0.03436734
52	0x3d4f80da	0.05065999
53	0x3c029930	0.007971093
54	0x3d8ddfa3	0.06927421
55	0x3c739830	0.014867827
56	0xbd94bd1e	-0.07262634
57	0xbbe4b550	-0.006979622
58	0x3b697d00	0.0035627484
59	0x3cd2cb6c	0.025731765
60	0xbbfad640	-0.007654935
61	0x3b0fe700	0.0021957755
62	0x3c919d48	0.017775193
63	0xbc1a8030	-0.009429976

weight f4 [1, 64]
0	0xbd969d90	-0.073542714
1	0xbc4e7600	-0.012601376
2	0x3dd3e6da	0.10346766
3	0x3ca4d6b8	0.020121917
4	0x3dc8a488	0.09797007
5	0xbd35edd0	-0.04441625
6	0x3d2050e0	0.03913963
7	0x3d45abd4	0.04825957
8	0x3c0fee90	0.008784905
9	0x3df0dd8a	0.11761005
10	0xbdb1538c	-0.086585134
11	0xbd191f20	-0.0373832
12	0x3dc94536	0.09827654
13	0xbd49703c	-0.0491793
14	0x3db97c3a	0.090568975
15	0x3c27f1f0	0.0102505535
16	0xbb32c600	-0.0027278662
17	0xbb4726c0	-0.0030388087
18	0x3d8c8588	0.068614066
19	0x3dd4c7b6	0.10389654
20	0x3dbd0e00	0.09231186
21	0xbdbf8188	-0.09350878
22	0xbdbe5fa6	-0.09295587
23	0xbd706308	-0.058688194
24	0xbda016bc	-0.07816836
25	0x3dd9802c	0.1062015
26	0x3dece18c	0.11566457
27	0x3d8d0662	0.06885983
28	0x3de3b1f2	0.11117925
29	0xbcac7c88	-0.021055475
30	0x3d967eba	0.0734839
31	0xbdcfdbbc	-0.10149333
32	0xbd1be440	-0.038059473
33	0x3d8428b4	0.06453076
34	0x3d408a30	0.047006786
35	0x3dd2f9da	0.10301562
36	0x3cc84578	0.024447188
37	0xbcb7b9c0	-0.02242744
38	0x3d656220	0.056001782
39	0x3c90ae80	0.017661333
40	0xbdf4bf38	-0.119505346
41	0xbd8b9d1a	-0.06817074
42	0x3dd7620a	0.10516746
43	0x3defdc18	0.117119014
44	0x3d12dc44	0.035854593
45	0x3df8a6dc	0.12141201
46	0x3dcbcfb6	0.09951727
47	0x3c16e2e0	0.009209365
48	0xbb2f4e80	-0.002674967
49	0x3c775960	0.015096992
50	0xbdc88624	-0.0979121
51	0x3d82ee10	0.06393063
52	0x3df9052e	0.12159191
53	0xbdd0e00e	-0.10198985
54	0xbc38cc30	-0.011279151
55	0xbda11032	-0.07864417
56	0x3db1dd88	0.08684832
57	0xbd30b388	-0.043139964
58	0xbdd5208c	-0.104065984
59	0x3d7747e0	0.06037128
60	0xbdb3f37e	-0.08786677
61	0x3b18e500	0.0023329854
62	0x3c7a6690	0.015283242
63	0x3d508e4c	0.050916955
